model.pth (torch, 5224 bytes, 8 tensors)

weight f4 [5, 3]
00000000: e160 88be c6af 823d 0949 f63e f7e1 03bf
00000010: 0809 a7be 476e 493d 128a f53e 6bab 01bf
00000020: 7b88 903e 2523 40be e92a 0cbd 0bfe d43e
00000030: 1e81 ebbe a37d 00bf 9575 ea3e
-0.26636413 0.063811824 0.48102596 -0.5151667 -0.32624078 0.049177434 0.47956902 -0.5065219
0.28229126 -0.18763407 -0.03422061 0.4160007 -0.45996946 -0.50191706 0.45792833

bias f4 [5]
00000000: 6f08 babe 03cd a63d 550d ae3e 7cdb 80be
00000010: c1f6 bc3b
-0.3633456 0.08144572 0.33994547 -0.25167453 0.00576672

weight f4 [5, 5]
00000000: b195 c13e 212d b8be 77e7 10bd ffff b73e
00000010: 1fe3 d5be b4a0 dfbe 6124 43be a543 d5be
00000020: 9543 90be 0c63 d93e 70af 0bbe 40b0 82bd
00000030: 2ced a9bd 96ed a93e c2ef c83e 2255 5b3e
00000040: dc0f c2be ffcb ab3e 3df6 8dbe 1da1 b9bd
00000050: 66db 833e 2030 aabc b3dc 81be 901a c53c
00000060: e25d 8d3e
0.37809518 -0.3597193 -0.035376992 0.35937497 -0.41774842 -0.43677294 -0.19056846 -0.4165317
-0.2817656 0.4245838 -0.13641143 -0.06381273 -0.0829719 0.33189076 0.3924542 0.21419194
-0.37902725 0.33554074 -0.27726927 -0.09063933 0.25753325 -0.0207749 -0.25363693 0.024060518
0.2761069

bias f4 [5]
00000000: 415b 7abd 447a c43e 5a4c a1be 3e76 813e
00000010: 62a7 1abe
-0.061122183 0.3837453 -0.31503564 0.25285524 -0.15102914

weight f4 [5, 5]
00000000: c262 843e c139 d7be 7a9b 29be f2ca 603e
00000010: 0c52 683e a490 b63e 1be4 0c3e 3022 aebd
00000020: 21b3 af3e 48d9 c3bd 9d3c 843c 4422 cc3e
00000030: 5a69 813e 4ec5 98be 38b5 a43d 6a49 cd3e
00000040: a455 c5bd 84b9 cc3e f0f6 97bd 280c c13d
00000050: 7c49 cfbe 262f 91be 5cc3 033e f0a8 b93d
00000060: 0591 93be
0.25856596 -0.4203625 -0.16563216 0.21952417 0.22687548 0.35657227 0.1375889 -0.085026145
0.34316352 -0.095629275 0.016142184 0.39869893 0.2527569 -0.29838032 0.08042377 0.40095073
-0.09635475 0.39985287 -0.074201465 0.09426147 -0.40485752 -0.28356284 0.12867492 0.090654254
-0.2882158

bias f4 [5]
00000000: a823 85bd f3c0 b83e 80f7 8f3e f8f8 1dbd
00000010: 4518 53be
-0.065009415 0.3608471 0.28118515 -0.038567513 -0.20614727

weight f4 [3, 5]
00000000: 3bc7 7a3e dcff c63e dbfb cb3e 6c67 b6bd
00000010: 8838 cd3d d196 cc3e 7139 0f3f a8b2 3fbd
00000020: 2050 2b3d 209f 163e 8546 cabe d97b 773e
00000030: e506 263e 88f4 733e c4d7 ce3e
0.24490063 0.3886708 0.39840588 -0.08906445 0.10020548 0.39958814 0.55947024 -0.04680124
0.04182446 0.14709139 -0.39506927 0.24168338 0.16213568 0.2382375 0.4039899

bias f4 [3]
00000000: 546c 09be 8822 c13e a478 f53b
-0.1342023 0.37721658 0.007491188
